…
2021-11-30 17:42:29,550 - CRITICAL - len(testset): 11701
2021-11-30 17:42:29,550 - CRITICAL - len(predictset): 11703
2021-11-30 17:42:29,551 - INFO - len(trainloader): 549
2021-11-30 17:42:29,551 - INFO - len(testloader): 183
2021-11-30 17:42:29,551 - INFO - len(predictloader): 183
2021-11-30 17:42:29,551 - CRITICAL - 
[FUNCTION]: Creating GlobalClassifierTrainer......
2021-11-30 17:42:29,551 - CRITICAL - Creating a model for type RF
2021-11-30 17:42:29,551 - CRITICAL - Creating RandomForest, with n_estimators=100, max_depth=3
2021-11-30 17:42:29,555 - INFO - Structure of Fake Random Forest: FakeRandomForest(
  (dense): Sequential(
    (0): Linear(in_features=48, out_features=2000, bias=True)
    (1): Dropout(p=0.5, inplace=False)
    (2): ReLU()
    (3): Linear(in_features=2000, out_features=200, bias=True)
    (4): Dropout(p=0.5, inplace=False)
    (5): ReLU()
    (6): Linear(in_features=200, out_features=11, bias=True)
    (7): Sigmoid()
  )
)
2021-11-30 17:42:29,556 - INFO - Structure of Global Classifier: RandomForestClassifier(max_depth=3, random_state=0)
2021-11-30 17:42:29,556 - CRITICAL - 
[FUNCTION]: Creating GeneratorTrainer......
2021-11-30 17:42:29,556 - CRITICAL - Creating a generator
2021-11-30 17:42:29,559 - INFO - Structure of Generator: Generator(
  (net): Sequential(
    (0): Linear(in_features=48, out_features=600, bias=True)
    (1): LayerNorm((600,), eps=1e-05, elementwise_affine=True)
    (2): ReLU()
    (3): Linear(in_features=600, out_features=200, bias=True)
    (4): LayerNorm((200,), eps=1e-05, elementwise_affine=True)
    (5): ReLU()
    (6): Linear(in_features=200, out_features=100, bias=True)
    (7): LayerNorm((100,), eps=1e-05, elementwise_affine=True)
    (8): ReLU()
    (9): Linear(in_features=100, out_features=20, bias=True)
    (10): Sigmoid()
  )
)
2021-11-30 17:42:29,559 - CRITICAL - 
[FUNCTION]: Training global classifier RF......
2021-11-30 17:42:35,000 - CRITICAL - After training Random Forest, train accur is 0.7984617575843896, test accur is 0.7947184001367404.
